train_rs.pt (torch, 231557 bytes, 34 tensors)

module.conv1.weight f4 [8, 2, 5, 5]
00000000: 26e5 82be 2693 14be 68d2 d83d 7a86 52bd
00000010: 61c6 1bbf f71b 8cbd 95e2 183f 42f2 b03e
00000020: c6c4 bd3d a404 72be f589 413e 5d41 b73e
00000030: 9f5e 433e 1c3c fb3d 19b8 143e 678c 35be
00000040: f5df 4abe e6a3 d5bd f53f e9b8 8e45 95bd
00000050: 5475 92bd a858 68be 61e2 80be e303 d0bd
00000060: ab1a d23e 4f71 ecbe 6e36 ad3d e3ca fabc
00000070: 22d5 f03c 0a39 ddbd ee98 6a3e 9308 833e
00000080: 8371 e13e 1bcf 703e 286c 48be 56ef de3e
00000090: b272 2a3f b039 0fbc 3702 53be f4c0 e1be
000000a0: 9dc1 16be fa59 453e 0d46 c5bd f982 0fbe
000000b0: 41bd 463e d462 c8bd a5d3 0ebd 2b16 81be
000000c0: fd1e 983c 2515 1d3d 3d5f 783e 45d3 753e
000000d0: 8bbf 083f 74e2 273f 83bb e63e 6449 863d
000000e0: 04e9 17be 5056 e93e 0e72 c83d 7c10 973d
000000f0: dc3d a0bd 315e abbd 1911 2cbe 4b59 99bd
00000100: df31 91bb 48e0 0cbe 06ad e3bd a369 e6be
00000110: fc9c 3fbe 75a5 0bbd cc38 913d 80f3 30be
00000120: 4a41 cfbe e2f9 233d e779 263e 8807 c1bd
00000130: 9aa8 b53e 25c3 d83e 5954 803e b028 a03e
00000140: 0459 13be f19d 0c3f 3015 54be a154 bfbd
00000150: ca9f 76be e10b 88bd ca90 18be 7723 a23d
00000160: e732 d1be f2f4 12be 22d6 033e 7bee fd3d
00000170: cd87 663c 09b4 fbba 3a16 45be 075b cebd
00000180: 23c9 30be cc31 523e b086 ddbd 8be9 1a3e
00000190: 9cc3 033e a69d d43d 1b9d e33d 50d9 62bd
000001a0: 6172 7bbe 8391 ab3e dcf9 223e e257 163e
000001b0: 2ec7 1a3d 5a3c 423e cf54 edbd 06fd 6dbd
000001c0: 9a7e 4fbe f12f a4be 36f0 d3bd 7f9d 0d3b
000001d0: eebf d6be 3ff7 de3c 1356 233e 4806 3ebe
000001e0: e82c fcbd 6622 63be a2d9 3bbe 39d6 ac3e
000001f0: 8d4a 473e af7e 48bd 7bbe a3be a764 bbbc
00000200: 9b7d 263d e835 0fbe 005f 243e 1d80 bf3e
00000210: 2e76 373e 1f53 663c ba52 ad3c 738d f93c
00000220: 6e7b 93bd 9c83 e8bd 6f28 ffbd 1d2b 6bbe
00000230: b6b7 40bd d53e c73d 3cc5 9f3d 6c29 6bbe
00000240: e414 1d3e 4fbf 963e e487 81be 027c 873d
00000250: 7531 303e 1914 113e 6f7e 3a3e 5c62 65be
00000260: db8a adbe 8232 08be 6d53 94bd fa4d 32bd
00000270: fd6a 923b 2b98 ff3d 6708 ce3e 7afa 263f
00000280: f355 d8bd 1a5e 9ebd 186a 343d 8b9e b33e
00000290: 6e7b 693e 64df 3f3e 059f 9ebe 9c4c 183e
000002a0: 0b91 1a3e 7d4e 803d 7b9b b73c 1790 1ebd
000002b0: 6b24 2cbe 1a5b 4e3e 5b2e e0bc e42c 21be
000002c0: 520e 39bd 1906 e8be e14e acbd 97e2 043e
000002d0: 08f2 9ebe c2f0 463c 0f5e 863d da08 dcbd
000002e0: 2828 463e 0b0a c9bd 9b1e 343d fc6f 363e
000002f0: 865f d13e 5f20 8f3e 47a2 9dbe abcf a3bd
00000300: 2d88 ae3d b42c d73e 813d 073e fb6a 60bd
00000310: a662 df3c 2471 5a3c 857d 1a3d 5a52 84bd
00000320: eee6 d63d 06ec 8a3d a1e2 1fbd a184 d83d
00000330: cc4a db3d 2193 92bd 25e4 85be d34c 26be
00000340: 869a 99be ae93 eb3c 748b eebd 4a37 8abe
00000350: d261 3f3e 0cd4 593d 0fc4 7c3e aa43 9fbd
00000360: c1af 18be d26a 043e 8fef 313e 09a2 afbe
00000370: 90a1 6abd ff51 90be 783d 743d 4604 0d3e
00000380: 2aff 4fbe 07f0 123f 1bf4 843e fd4d 703d
00000390: 243d 633c 6147 88bd 3771 9ebd 6333 9abe
000003a0: c116 a0be d9a8 373c 2d73 8dbd cb52 d7bd
000003b0: 909e f4bd b83e 153e 0189 f63d 30a5 a23e
000003c0: fb1e 79be c4fc 07be a7db 93be 234a 5f3e
000003d0: f92f da3e a546 73be b963 033e f5a4 b33c
000003e0: 82b2 db3d dd7b 253e 7062 a53d 04b2 03bd
000003f0: 2261 0d3f bae1 4f3e fdd4 8d3d 5ba6 dcbe
-0.2556545 -0.14509258 0.10587007 -0.051397778 -0.6084958 -0.06841271 0.59720737 0.34559828
0.09266047 -0.23634583 0.18900283 0.35792056 0.19079064 0.12267324 0.14523353 -0.1772934
-0.19811995 -0.10431652 -0.00011122219 -0.07288657 -0.07151285 -0.2269007 -0.25172713 -0.10156991
0.4103597 -0.46180198 0.08457647 -0.030614322 0.029398505 -0.10801895 0.229099 0.2559248
0.44031915 0.23516504 -0.19572508 0.43541974 0.6658126 -0.008741781 -0.20606314 -0.44092524
-0.14722295 0.19272605 -0.09632502 -0.14014806 0.19408132 -0.09784475 -0.03486981 -0.25212225
0.018569464 0.038350243 0.2425508 0.24006374 0.5341727 0.65579915 0.45064935 0.06556967
-0.14834982 0.45573664 0.09787379 0.07376191 -0.07824299 -0.08367575 -0.16803397 -0.074877344
-0.004430994 -0.13757432 -0.11116986 -0.4500247 -0.18712229 -0.03409334 0.07090911 -0.17280388
-0.404795 0.04003323 0.1625744 -0.094252646 0.35480195 0.42336383 0.25064352 0.31281042
-0.14389426 0.549285 -0.20711207 -0.093423136 -0.24084392 -0.06642891 -0.14898983 0.07916921
-0.40859148 -0.14351252 0.12874654 0.12399002 0.014070463 -0.0019203435 -0.1924676 -0.10075956
-0.17264228 0.20526809 -0.10816705 0.15128152 0.12867588 0.103816316 0.1111395 -0.055383027
-0.24555351 0.33509454 0.15915626 0.14681962 0.03778761 0.18968335 -0.115884416 -0.05810263
-0.20263138 -0.32067826 -0.10348551 0.0021608768 -0.41943306 0.027217505 0.15950803 -0.18557084
-0.12313253 -0.2218109 -0.18344739 0.3375719 0.19462033 -0.04894894 -0.31981263 -0.022875143
0.04064713 -0.13985407 0.16051865 0.3740243 0.17916176 0.014057904 0.021157611 0.030462956
-0.07201277 -0.113532275 -0.12458884 -0.22965665 -0.0470502 0.09728781 0.07801291 -0.2296502
0.1534 0.29442832 -0.2529899 0.066154495 0.17206366 0.14167823 0.18212293 -0.22400802
-0.33895 -0.13300517 -0.07242475 -0.043531395 0.0044683204 0.124801956 0.40240785 0.65225947
-0.105632685 -0.07732792 0.04404649 0.35081896 0.22800991 0.1873756 -0.30980697 0.14872974
0.15094392 0.062649705 0.022413006 -0.038711634 -0.16810767 0.2015194 -0.027365854 -0.1573978
-0.045179673 -0.45317152 -0.084134825 0.12977062 -0.3104403 0.012142362 0.06560909 -0.10743876
0.19351256 -0.09816369 0.0439745 0.17816156 0.4089319 0.27954385 -0.3078787 -0.07998594
0.08522067 0.42026293 0.13207056 -0.054789525 0.027268719 0.013332639 0.03771736 -0.0646102
0.10493265 0.06783299 -0.03903449 0.10572172 0.10707626 -0.07156969 -0.26150623 -0.16240244
-0.30000705 0.028756943 -0.11647692 -0.26995307 0.18689659 0.05318074 0.24684165 -0.07776578
-0.14910795 0.12931374 0.1737654 -0.3430331 -0.057282984 -0.28187558 0.059628934 0.13771161
-0.20312181 0.573975 0.25967488 0.058668125 0.0138695575 -0.066542394 -0.07736438 -0.3011733
-0.3126736 0.01120969 -0.06906734 -0.105138384 -0.11944306 0.14574707 0.1203785 0.31766653
-0.24328224 -0.13280016 -0.2887852 0.21805625 0.42614725 -0.23757418 0.1283101 0.021929244
0.10727407 0.16160531 0.08075416 -0.03215219 0.5522634 0.20300952 0.0692539 -0.4309567

module.conv1.bias f4 [8]
00000000: d4fe 04bf 4ce8 3fbe d252 1f3d 25d4 d1be
00000010: 4e77 a53e 6caf 2ebf 9f44 083e 2a94 c5be
-0.51951337 -0.18740958 0.038897343 -0.40982166 0.32317585 -0.6823642 0.13307427 -0.38589603

module.ln1.weight f4 [8, 32, 32]
00000000: 37d4 2eba 56a3 fd3a e89f 0abc 26d5 0f3c
00000010: 7e6b b53a bffa a2ba 2ae5 39bc 23bc 3d3b
00000020: 6419 2bba b0a0 6b3d 64cc 20bd ccfc 9fbc
00000030: a64f 7cbc 671f 79bd 46fe 87bb 6dd1 d43c
00000040: 8905 213d c7fe 563c a879 563e 01e4 6d3e
00000050: d612 c53e 009f 233e 27a3 be3d 89db 403d
00000060: ae32 bc3b afff 9e3c b544 3f3c 8159 3e3d
00000070: 129c f53d ab21 093e 71d7 1cbc 0da8 943c
00000080: 20ea 3d39 d4b6 d83d a9f2 163e a273 753e
00000090: 0917 89b8 117e 663e 65e0 593e d2dc 8f3e
000000a0: 6c6b 8dbd 5f76 3d3e 81b7 883e d571 b23e
000000b0: 256f 9c3e edae 8a3e 4d9a 8d3e 49ca b13e
000000c0: 4a2b ef3d dbeb f43e 3f66 3c3e c027 993e
000000d0: 1c6f 6f3e b554 a73e 65ec 0e3e 609a e23e
000000e0: e59f 2c3d ddbe 593e 5f81 2b3e 5220 ad3e
000000f0: 5610 383e 5db7 393e 1081 623e 0e9c 253f
00000100: 78ce 043a 9db7 52bd 997d ff3e 3eb9 ea3e
00000110: 750e d23e cf1b e33e ec8b 223f 0566 013f
00000120: cb18 e43e d88d 373f 6c35 113f d55d 2d3f
00000130: 58ea ff3e ad4a 113f e6e8 f83e 5c02 0a3f
00000140: 855d d93e 6a09 1b3f 4fbd dd3e 9cbd ca3e
00000150: 7dae ed3e 39a3 d43e 02ab cc3e 88fd d23e
00000160: ac0d de3e 6a87 d43e 9b7b d33e 000b a53e
00000170: 991d fb3d 7e8d fe3c 1021 273e 4225 d53e
00000180: c06a b53b ebb6 c03d 78c3 e13d 8dd3 573e
00000190: bc2a 153e 2540 333e efe0 4f3e 8f23 bd3e
000001a0: f206 ff3d 7579 723e 7ec6 b63e e255 a33e
000001b0: 1e04 853e 4d65 943e b620 c23e 0fb6 d13e
000001c0: 369e 883e 6609 9e3e 1b4b 8d3e 487b b83e
000001d0: 1965 453e 5bc2 a13e 9db6 853e efec e13e
000001e0: af88 983d dce7 823e c488 5b3e 1720 9d3e
000001f0: 3b8b 9bbd e002 033e 9718 533e 3a3a 343f
00000200: 96dd 8dbb 23e4 2f3e c498 9b3e 6208 cb3e
00000210: b408 e63e e8b8 ea3e 6ded ca3e f918 e83e
00000220: b0db c73e 090a 173f dba1 f53e 4c12 e93e
00000230: eb4b ee3e b599 183f 3bba f03e 42e0 093f
00000240: b0b2 053f 4d41 0f3f 33db dd3e 757d 103f
00000250: b1fb e03e d9ea 043f c277 c13e eb35 fc3e
00000260: 4da9 283e dbf5 a83e 0e99 1c3e e428 593e
00000270: 83f8 8a3d 4f6e 043e 3c54 a13e f817 d83e
00000280: 7463 243c 5e2e 4c3e 84ff 113e fe12 fe3e
00000290: 4c20 573e 1a94 dc3e 8ad9 b13d 6572 ed3e
000002a0: 3de3 d93d 8e47 103f 0cf6 823e f9ad 203f
000002b0: 382d 413e 2a58 e23e bdee 1d3e f2d4 073f
000002c0: ff9b c83d 5295 cd3e c576 c83e b2aa 123f
000002d0: 57bd 8c3e 3c43 e13e 3851 bb3e 4c9d d93e
000002e0: bca7 2f3e d915 c23e 1ad2 4b3e 473b d33e
000002f0: 345e fe3c 63ff d23d 4747 ef3c 39be 1c3e
00000300: fd00 e9bb a01d 8b3d d53c ae3d bff3 a63e
00000310: 41a3 163e 9e3e c13e 7570 993e 0568 973e
00000320: ddee 7b3e ec41 8c3e 434c 893e 4e76 fa3e
00000330: ee79 5d3e 1992 c53e 2fc1 d83e 3396 a33e
00000340: 203a 873e bad1 973e 5b71 d33e 298c bb3e
00000350: 003f 5e3e 1cc8 dd3e a3fc 7e3e d40d a93e
00000360: dda5 7b3e 9320 503e 3acd 453d 35ff ad3e
00000370: 0995 e63d ea89 4a3d f632 cd3b 527a 2c3e
00000380: 9b46 9dbb 822f 6c3d 443f 683e 20e8 a83e
00000390: b038 1b3d a5c3 b63e ee64 613e 2456 b83e
000003a0: 3db7 9f3d 0a42 b33e 991b ad3e 59e7 033f
000003b0: 1420 c83d fb82 da3e be21 e33e 322a fa3e
000003c0: 7499 ab3d 5db6 b93e c049 e83e 92ad f03e
000003d0: 9d10 663e 5b10 aa3e d569 6a3e 5a0a d23e
000003e0: 19c2 ad3d 535f 403e 45f6 d03d 1f64 823e
000003f0: 8d1e 00bc 892c 48bd edf1 5e3c 30b7 36be
-0.0006669196 0.0019351046 -0.008460976 0.008778846 0.0013841239 -0.0012434347 -0.011346141 0.002895125
-0.0006526916 0.05752629 -0.039257422 -0.019529723 -0.015399849 -0.060820963 -0.004150185 0.025978768
0.03931192 0.013122267 0.20944846 0.23231508 0.38490933 0.15978622 0.093084626 0.047084365
0.005743346 0.019409029 0.011674096 0.046472076 0.11992659 0.1339175 -0.00957285 0.01814654
0.00018111663 0.10581747 0.14741005 0.23969892 -6.53696e-05 0.22509028 0.21277006 0.2809816
-0.06905255 0.18502186 0.26702502 0.34852472 0.30553547 0.27086583 0.27656785 0.34724644
0.116781786 0.47836193 0.18398379 0.2991314 0.23382229 0.32681814 0.13957365 0.44258404
0.042144675 0.21264215 0.1674857 0.3381372 0.17974982 0.18136354 0.22119546 0.64691246
0.00050661666 -0.05144464 0.4990051 0.45844454 0.41026655 0.44357154 0.63494754 0.50546294
0.44550166 0.7170081 0.5672214 0.677213 0.49983478 0.5675457 0.48615187 0.5390985
0.42454162 0.6056124 0.43308493 0.39597785 0.46422186 0.4153078 0.3997422 0.41209054
0.43369806 0.41509563 0.4130524 0.32234955 0.12261505 0.031073328 0.16321206 0.41629988
0.005536407 0.09409889 0.11023611 0.21076794 0.14567083 0.17504938 0.20300649 0.36941192
0.124524966 0.23679145 0.35698313 0.3190146 0.25979704 0.28983536 0.3791558 0.40959212
0.26683205 0.30866545 0.27596363 0.36031556 0.19276847 0.31593594 0.26115885 0.44126078
0.07447945 0.2556752 0.2143889 0.30688545 -0.075949155 0.12794065 0.20614849 0.70401347
-0.0043293936 0.17176871 0.30389988 0.39654833 0.44928515 0.45844197 0.39634266 0.45331553
0.39034796 0.5899969 0.47975048 0.45521772 0.46542296 0.5960954 0.47017083 0.53857815
0.5222578 0.55959016 0.43331298 0.5644143 0.43942025 0.5192085 0.3778668 0.49259886
0.16470833 0.33000073 0.1529276 0.21207005 0.06785681 0.12932704 0.31509578 0.42205787
0.010033477 0.19939563 0.14257628 0.49623865 0.21008414 0.43081743 0.086840704 0.4637634
0.106390454 0.56359184 0.25578344 0.6276546 0.18864906 0.4420789 0.15423103 0.53059304
0.09795379 0.40152985 0.39153114 0.5729171 0.27488205 0.43996608 0.36585402 0.4250282
0.1715383 0.37907293 0.19904366 0.41256163 0.031050779 0.103026174 0.029208792 0.15306939
-0.0071107135 0.0679276 0.085076965 0.3260784 0.14710714 0.37743086 0.2996861 0.29571548
0.24602838 0.27394044 0.26815996 0.48918384 0.21628544 0.38588026 0.42334887 0.3195053
0.26411533 0.29652196 0.4129742 0.3663037 0.2170372 0.43316734 0.24901061 0.33018363
0.2457499 0.20324926 0.048291422 0.3398377 0.11258895 0.04944793 0.0062621785 0.16843536
-0.0047996766 0.057662494 0.22680384 0.32989597 0.03789586 0.3569614 0.22011158 0.3600322
0.07798622 0.3501132 0.33810118 0.51524884 0.097717434 0.42678055 0.4436168 0.48860317
0.08378878 0.36271945 0.45368767 0.47007424 0.22467275 0.33215603 0.22891934 0.41023523
0.08484287 0.18786363 0.10203222 0.2546701 -0.007819784 -0.048870597 0.013607484 -0.17843318

module.ln1.bias f4 [8, 32, 32]
00000000: 09b9 93b9 1d15 533b ac85 083c 9ad1 97bb
00000010: becb 73bb 698c 963c c760 1c3b 64fb 38bc
00000020: 7dde 393a 9de4 54bc 86e3 4a3c ec20 e4bc
00000030: 4294 d5bc ac18 f23c 971d 50bd 81e6 1dbd
00000040: c465 fcbc 3b70 7fbc c16b 0b3d 5bdb ad3d
00000050: eb60 ddbc 3901 82bc a9e0 05bd 840f 99bc
00000060: 8f73 223c fa80 0bbd da0a 943c 5229 b83c
00000070: a851 ed3d 2e51 ea3d a87f ef3c bdaa a0bc
00000080: 2f69 cb3b 10b0 bbbc 7955 5bbd 773b a8bd
00000090: 07af 543d f9c1 9f3d b56e 333c 3d59 e6bd
000000a0: 41c8 05bd fbff 13bd 122b 39bc 960d a4bd
000000b0: 1305 06bd 2ef9 66bd f436 5fbd 3c5b 1ebd
000000c0: c667 71bd d653 60bc 0ddc cd3b 22d2 a4bd
000000d0: 797d 5dbd d40d bc3d dd25 b93c 7029 7fbc
000000e0: 9cce e83c 02ff 0a3d 4eb4 0abd fe4e 42bd
000000f0: 18d0 2c3d 36ee 49bc a690 d63c bf05 bd3b
00000100: da42 78bb afcc b6bc e440 dd3a 1ec7 18bc
00000110: 50a4 60bd d830 8cbd 1ec7 d8bc 85c1 45bd
00000120: 4ce8 42bd f7cd d3bd 051e b8bc 94b6 433d
00000130: a7b0 14bd 6f24 1ebd 0641 cfbc e675 bd3b
00000140: aa34 66bd 74e6 8dbd 7379 b7bc c119 c3bd
00000150: 26e1 67bc 4444 66bd b17b 34bd fa23 17bb
00000160: 32ee 5e3c 2232 d5bc 8987 b4bc d61a c5bc
00000170: e4f1 c5bb 6a61 e9bb aba8 95bd 9d07 8dbc
00000180: c616 55bc 049c 473d 2ed3 abba e59c 70bc
00000190: 927a 37bd 2adc 7fbd e67e b2bc 8032 8fbd
000001a0: e685 d8bc 516c adbc 418a 5bbd 93e7 04bc
000001b0: d806 8dbd ad26 f6bd a089 a8bd 9ab7 b7bd
000001c0: 85ff dcbd e755 b0bd 298f b3bd 91b3 97bd
000001d0: 34b4 6ebd 8046 88bd e9d0 81bd b97b a7bc
000001e0: 5e51 1b3d 7481 853b 5ea5 6fbd 531a bcbc
000001f0: f22e 4b3c 0cd6 263c 3d1f 3bbd f26e f23c
00000200: 02ed 353c d128 533d d708 843d 4674 adbc
00000210: 121d b0bb fd82 93bc eb2e 76bc a255 34bd
00000220: 7d9a 913a 957a ecbc b8c8 f4bc f7cf 97bd
00000230: af7c fc3b 542d 6abd 1077 14bd 79ea bcbd
00000240: 2601 98bd 184d 97bd b606 9cbd 740b 36be
00000250: d425 acbd c344 3abd 12f7 71bd bf12 95b9
00000260: 0509 733c b2b1 aabd f4ee 90bd 9cbf 27bd
00000270: 891f a2bb fcda ddba e409 5dbc f51b a53d
00000280: 93f1 2fbc f8d2 183d b2be 37bd 05d1 34bd
00000290: c83f 993c c730 f1bd 1380 19be 96d3 11be
000002a0: fe77 dabd 8e3a a5bd b09d 14be 1dce 38bd
000002b0: e0ad e5bc de7d 20bd 09e5 0cbe 239b 03be
000002c0: a610 a7bd 9585 d5bd 0fee 4bbe 0ca3 1dbe
000002d0: 3f10 35bd 442a 79bd 77ab 0dbe 3cf9 20be
000002e0: ce71 17bd 42aa 2abc 9450 1ebd 2951 c5bd
000002f0: 8b8b 3b3d f437 0fbd 4be8 d93c 835b ff3c
00000300: 9e45 673c cc14 443d f41d 833d 26ee c4ba
00000310: 054d 57bc 3294 0bbe df71 c93c f276 1fbd
00000320: b829 03bc 32aa 28be 481d dd3c d602 19bd
00000330: 7e15 6dbd e04d 16be 1b26 a6bc 30e9 41bd
00000340: 758b e6bc 7ed8 d7bd 5032 ac3c 62c0 9cbd
00000350: 0eb8 afbc d76d e4bd c1e6 eabc a4dc 94bd
00000360: 6105 463d 173d 7dbd b343 86bd f9e1 b4bc
00000370: b29e 583a 696d adb8 74c7 5f3d 1708 903d
00000380: 4fcc 323c a3bb 503d 48b6 133d c557 7e3d
00000390: 7b4f bd3c 1d9f be3d 0191 7e3c b2e3 5e3d
000003a0: cf20 c73b e8bc 763d 3b8c 6fbd b0af 163d
000003b0: b594 02bd 1532 7a3d bd1e 09be e6c4 cdb9
000003c0: b4ea a7bc 41d0 403c d9d1 0abd c4af 7b3b
000003d0: 6613 18bc 11c2 2a3d e37d 9f3c e9e1 863c
000003e0: 69f2 003d f542 6dbd 1ee4 1dbc 1362 013d
000003f0: 62aa ac3d 438b bf3d ef10 993c d63d 50bc
-0.00028175887 0.003220863 0.008332651 -0.0046331408 -0.0037200297 0.0183775 0.0023861395 -0.011290405
0.0007090343 -0.012993959 0.012383347 -0.02784773 -0.026071671 0.02955278 -0.05080947 -0.038549904
-0.030810244 -0.015590723 0.03403831 0.08489104 -0.027023753 -0.015869724 -0.032684956 -0.018684156
0.009915247 -0.03405855 0.01807158 0.02248064 0.1158784 0.11441265 0.029235676 -0.019612664
0.006207607 -0.022911102 -0.05354831 -0.08214467 0.05192473 0.07800669 0.010951688 -0.112474896
-0.03266168 -0.036132794 -0.011301773 -0.08010404 -0.032719683 -0.05638998 -0.054495767 -0.038661227
-0.058936857 -0.013691863 0.0062823356 -0.08047892 -0.05407474 0.09182325 0.022601062 -0.015573844
0.028418832 0.0339346 -0.03386336 -0.047438614 0.04219064 -0.01232486 0.02619202 0.0057685073
-0.0037881644 -0.022314398 0.0016880301 -0.009324817 -0.0548442 -0.06845254 -0.026462134 -0.048280258
-0.047584817 -0.10342019 -0.022475252 0.047781542 -0.03630128 -0.038608965 -0.02529956 0.005781877
-0.056202568 -0.06928721 -0.022396779 -0.095263965 -0.014152801 -0.056217447 -0.044063274 -0.0023062215
0.013606595 -0.026024882 -0.022037284 -0.024060648 -0.0060407985 -0.0071222084 -0.073075615 -0.017215544
-0.013005918 0.048732772 -0.0013109201 -0.014685844 -0.044794627 -0.062465824 -0.021789026 -0.06992054
-0.026431035 -0.021169813 -0.053598646 -0.008111852 -0.06886071 -0.120190956 -0.08229375 -0.08970566
-0.10790924 -0.086101346 -0.0876754 -0.074072964 -0.058277324 -0.06654072 -0.063386746 -0.020444738
0.037919395 0.00407427 -0.058507316 -0.022961771 0.012401329 0.010182869 -0.045684088 0.029593918
0.01110387 0.051552597 0.064469986 -0.021173608 -0.005374559 -0.018006796 -0.015025835 -0.04402698
0.0011108663 -0.028867045 -0.029880866 -0.07412713 0.007705293 -0.057172135 -0.03624636 -0.092244096
-0.07422094 -0.07387751 -0.076184675 -0.17777807 -0.08405653 -0.045475733 -0.059073515 -0.00028433462
0.014833693 -0.08334674 -0.07076827 -0.040954217 -0.004947607 -0.0016926224 -0.013491128 0.08061973
-0.010738748 0.03731057 -0.044859596 -0.04414465 0.018707171 -0.11776882 -0.14990263 -0.1424087
-0.10667418 -0.08067809 -0.14513278 -0.04511844 -0.028037012 -0.039182536 -0.13759245 -0.12852149
-0.08157472 -0.104258694 -0.19915031 -0.15394229 -0.044204947 -0.060831323 -0.1383494 -0.15720075
-0.036973767 -0.010416569 -0.038651064 -0.09634621 0.045787375 -0.03496547 0.026600024 0.031171566
0.014115719 0.047871396 0.064021975 -0.0015024587 -0.0131409215 -0.13630751 0.02459043 -0.038931794
-0.008005552 -0.16471174 0.026991501 -0.03735622 -0.057881825 -0.14678144 -0.020281842 -0.047341526
-0.02814267 -0.105393395 0.021020085 -0.076538816 -0.021450069 -0.11153763 -0.028674485 -0.07268646
0.048344973 -0.061825838 -0.06555881 -0.022080408 0.00082633935 -8.269662e-05 0.054633573 0.07032793
0.010912969 0.050960194 0.03606251 0.062095422 0.023109188 0.09307692 0.015537501 0.054416366
0.006076909 0.06023875 -0.058483344 0.036788642 -0.0318801 0.06108292 -0.13390632 -0.00039247348
-0.020497657 0.011768402 -0.033891533 0.0038404325 -0.009281969 0.041688982 0.019469207 0.016465144
0.03148118 -0.057925183 -0.009636907 0.03158767 0.084309354 0.09352734 0.018684832 -0.012710055

module.conv2.weight f4 [16, 8, 3, 3]
00000000: b0bd edbb a0f1 833e 528e 113f 6bb3 4dbe
00000010: c230 1bbe 1b84 223e 65e2 593c b799 453d
00000020: f333 69be 6f65 c23d 3a45 683e 80b6 a43e
00000030: d4f2 20be 4d15 c9bd 5fa2 7b3e 5062 8cbe
00000040: 7960 58be be30 e33d 3e40 013e 8f2d bfbb
00000050: f7c5 113e 8ba2 103e a631 a63b f274 833c
00000060: f99d 803c e233 21bd f755 303d b420 a93d
00000070: 3e93 1e3e 0765 9f3e 811e cabd 459a 29be
00000080: 04c9 1a3e 5b3c bcbe e961 c6be 2b61 d3bd
00000090: c877 37be bbcf 153e 5198 403e c620 a3bd
000000a0: 4c45 72bd f5b4 473d 230f 293e d1d4 823d
000000b0: afa7 023e 63ab 68bd abdc 0e3e f1e9 263e
000000c0: 4364 fabd e5cb 1e3e 84c7 433d f50f 28be
000000d0: 23d3 ebbc c36a 3b3e 5618 0cbd 2ef8 603e
000000e0: 22ec 493e 6d51 463e 1e9e 733d 6542 14be
000000f0: e458 e13d 9bfb 893d d71d c1be 1a01 97be
00000100: 35f8 13be 8831 b23e 3b1f 8e3b 77a0 713c
00000110: 5e8b af3d 82ee 483e 321c 813d 4249 cbbe
00000120: 9fe0 97be cd36 0bbe 3ac7 f43d 7925 c8bd
00000130: 1479 63be d457 debd 81ab 5ebd 706b 5cbe
00000140: 301e 463e 0ec4 3dbe 9886 1e3e 9065 2f3e
00000150: 94ed 54ba 3224 86bc 72c0 9e3c 32dd 853e
00000160: d6f6 2bbd 2dee 5ebb 7a0a 24be 54cb 28ba
00000170: 59e3 35be c5fc 9ebd f3c6 993c 095a d3bd
00000180: 2222 84bd 9431 2ebb 97e0 b1bd 331e 04be
00000190: 7779 61be 299e 1a3e 441c 6b3d e02b 993d
000001a0: 324a d13d 5d26 8fbe dbe5 643e 9c21 be3e
000001b0: 2bc2 c5bd f4dc 8abd 3a70 6a3d f267 693d
000001c0: 724b 6fbc 28a7 29be aa06 e6bb 97a2 703d
000001d0: 4693 833e 7693 9abe cbf3 a53d d346 503c
000001e0: 5815 34be e81c 7a3d d4ca 153e 4cf0 6d3c
000001f0: c681 4ebe bf6e 80bb 7df0 d83d ce0f 813d
00000200: 4668 58bd 7a8a e53c d0d7 9cbc 9b50 6fbe
00000210: c935 bd3d df36 cc3c e3b4 b7bc b4cf b6be
00000220: 6e1c 44be d4bf 1fbe 4f5e f7bd a139 d2be
00000230: 8504 1cbe 3a1f a8be e7d2 78be db9b 643c
00000240: 141e ef3d 15d9 d43d eb4d 3e3d 1250 2abe
00000250: 0299 a13d 058b 823e 72a6 d13d 4f1e 223b
00000260: a3cb 35be 6e54 c9be bfdd efbe 53a3 b6bd
00000270: 19ba 8f3e c10a cb3c 6fb1 dd3e 2b02 b9bc
00000280: 629e b33d a9d9 453b 9c21 aabe 20a6 ce3b
00000290: 855e 56bd 91e9 19be dd06 8abe 4dc2 7b3d
000002a0: 6f8e 4bbe 6be6 c53c ceec 04bd c519 d83d
000002b0: 6824 bebd a5c1 fa3c 6464 aa3c 7a79 1e3e
000002c0: 0d59 d23c 020b 553d d9bb 743e bffa 2cbe
000002d0: 5bd7 553d 82d7 92be 68cf d9bd 9701 89bd
000002e0: fc20 173c 98f5 c7bc 926e d3be edec a8be
000002f0: e8b6 33be c575 6ebe 387d b1be 664c 58be
00000300: ba4e 083e dc31 93bb e61b 313d 2750 0d3e
00000310: b397 20bd 222a c03d cdd5 90bd b9d1 abbd
00000320: 48b9 81be 3cae 42be 4a7b cebc e572 6bbe
00000330: 9704 78bc b9aa 38be 1b14 e03d 67eb 243e
00000340: ba57 84bc 583f 2bbe 6ea7 cc3d 1e38 6e3e
00000350: b4ea 6c3c ad65 cf3d 8fa0 793d 1055 9e3d
00000360: 3fd4 b4bc 12b9 b73e ba29 823e 6da5 ce3d
00000370: 78e3 a7bd d623 bcbd 5917 3e3e 4170 c53c
00000380: a39d d2bc 6104 0cbe d5e0 c6bc bdbc 813c
00000390: 048e b5be ae82 fd3d ebff e93d 1cfb bfbd
000003a0: 0b2e b5be f87e bf3c a84f 333d 3a9f d4bc
000003b0: afe6 b03d 7055 663b 629d 35bc 8de7 9dbe
000003c0: 8a8b bbbd 8bd0 d9bb 7843 f6bd 52a4 163e
000003d0: 3011 f93d 0cda 3e3e e669 55be 29be 883d
000003e0: a75f 04bd cca0 4f3e 0cbf 0c3e e6c9 c9be
000003f0: c038 eebd d35f 573e e63e 5f3e 35ef 3e3d
-0.0072552785 0.25770283 0.5685779 -0.20087974 -0.15155318 0.15870707 0.013298606 0.048242297
-0.22773723 0.09492003 0.22682658 0.32170486 -0.15717632 -0.09818516 0.24573658 -0.27418756
-0.21130551 0.11093281 0.12622163 -0.0058342884 0.14235674 0.14124505 0.0050718365 0.016046975
0.015700327 -0.03935612 0.043050732 0.08258191 0.15485856 0.31131765 -0.098690994 -0.16562755
0.15115744 -0.36764798 -0.38746575 -0.10321268 -0.17916787 0.14630024 0.18808104 -0.079652354
-0.059148118 0.04875656 0.1650968 0.06388248 0.12759279 -0.056804072 0.13951366 0.16300179
-0.12226155 0.15507467 0.047797695 -0.16412337 -0.028787201 0.18302445 -0.034202896 0.21969673
0.19718984 0.19366999 0.059476964 -0.14478453 0.11003283 0.06737443 -0.37718078 -0.29493028
-0.14450152 0.34803414 0.004337219 0.01474773 0.08571504 0.19622234 0.06304206 -0.3970433
-0.2966356 -0.13595124 0.11952062 -0.09772772 -0.22214156 -0.10856596 -0.054362778 -0.21525359
0.19347453 -0.1853182 0.15481031 0.17128587 -0.000812256 -0.016374681 0.019378874 0.2614532
-0.041983448 -0.0034016476 -0.16019621 -0.00064389897 -0.17762507 -0.07763056 0.018771624 -0.10319907
-0.06451823 -0.0026579844 -0.08685415 -0.12902145 -0.22018991 0.15099396 0.057400003 0.074790716
0.1021923 -0.27958956 0.22353308 0.37135017 -0.09656175 -0.06780425 0.057235934 0.056983896
-0.01460539 -0.16567671 -0.0070198374 0.058748808 0.25698298 -0.3019063 0.081031404 0.012712198
-0.17586267 0.061062723 0.14628154 0.014522623 -0.20166692 -0.003919452 0.105927445 0.06301843
-0.052833818 0.028020132 -0.019145876 -0.23370592 0.09238774 0.024928508 -0.02242512 -0.3570534
-0.1915147 -0.1560052 -0.12078535 -0.41059592 -0.15236099 -0.32836324 -0.24299203 0.013953174
0.11675659 0.103929676 0.046461027 -0.16632107 0.07890512 0.25496688 0.10236825 0.0024737304
-0.17753462 -0.39322227 -0.46848866 -0.089178704 0.2807167 0.024785401 0.43299434 -0.022584042
0.087704435 0.003018955 -0.33228767 0.0063064247 -0.052336235 -0.15030505 -0.2695836 0.061464597
-0.19878553 0.024157723 -0.032452397 0.1055179 -0.09284288 0.030609915 0.020799823 0.15476027
0.025677228 0.05201245 0.23899783 -0.16892527 0.052207332 -0.28680044 -0.10635263 -0.06689756
0.009224173 -0.0244091 -0.41295296 -0.3299326 -0.17550242 -0.23287113 -0.34665847 -0.21122894
0.13311282 -0.0044920277 0.043239497 0.13800107 -0.03920717 0.09383036 -0.07072029 -0.08389611
-0.2533667 -0.19011778 -0.025205273 -0.22993048 -0.015137813 -0.18033876 0.10941335 0.16105424
-0.016155113 -0.16723382 0.09992872 0.23263595 0.014460254 0.10126815 0.060944136 0.07731068
-0.022073863 0.35883385 0.2542246 0.10090146 -0.08197683 -0.09186523 0.18563594 0.024101378
-0.025709933 -0.13673545 -0.02427713 0.015837068 -0.35459912 0.12378441 0.114257656 -0.09374067
-0.3538669 0.023375973 0.043777138 -0.025954831 0.086377494 0.003514614 -0.011084886 -0.30840722
-0.09157474 -0.0066471747 -0.120245874 0.1471112 0.121614814 0.18637866 -0.20841178 0.06676895
-0.032317784 0.20276183 0.13744754 -0.3941185 -0.11631918 0.21032648 0.21801338 0.046614844

module.conv2.bias f4 [16]
00000000: 81be 24be 66fc 8d3e b1b7 343e 0cc4 853e
00000010: cc91 9bbe ec53 673e 5db3 873c 624a 9d3e
00000020: 0f33 c3bd 36d4 26bd a4d5 cfbc 3efb 273e
00000030: e7d5 673e 2066 c83d 8499 4e3e d38e aa3e
-0.16088296 0.27731627 0.17648198 0.26126134 -0.30384672 0.22590607 0.01656502 0.30720812
-0.09531223 -0.040729724 -0.025370426 0.16404435 0.22640191 0.09785104 0.20175749 0.3331209

module.ln2.weight f4 [16, 16, 16]
00000000: 6345 213b ee33 603c 2816 18bc 97cb 273c
00000010: 4428 023c 67c5 41bc d2e1 c3bc 1339 003d
00000020: c960 d63a 0eb3 8f3c b705 a9bc 0b8b 053d
00000030: 5d5d d03c ac39 a23c 1654 feb8 e853 a3ba
00000040: f171 183d 58b0 373e 89b4 463e 9fbd bf3e
00000050: 763a a93e ac74 dc3e df07 003f a6e7 093f
00000060: 6a8c 063f e270 213f 68f8 0c3f e7fe b33e
00000070: 9d54 bc3e fc9c a93e 5217 cc3e e10b 3b3e
00000080: 70ec a43d 0ac0 a13e a273 043e f9d1 ba3e
00000090: 333c 983e b7e8 013f 8205 383e fba1 1e3f
000000a0: ef91 773e cc65 043f 6232 8d3e 5c6e 063f
000000b0: 4571 773e 2223 e13e 73c9 e43d 7b71 973d
000000c0: 174e aa3e 86a2 593f 875d 313f 24f6 583f
000000d0: af73 283f cd68 563f e3bc 313f 2cf1 533f
000000e0: d02f 253f d7e3 433f 1ba2 1a3f 7abb 363f
000000f0: c3bb 193f 605a 293f 3e46 4a3e 6fd1 eebd
00000100: a6c3 3d3c 5be2 b93e 5c42 8f3e 1d49 e63e
00000110: 1ccd c33e bd01 0c3f a996 af3e 6efb 173f
00000120: 9312 d33e 36a5 123f 7014 ed3e e2dd 953e
00000130: 8401 273e 0f02 9c3e a310 463b 0e77 723a
00000140: 9e75 373a 519d ab3e 051a e73e f8e3 fe3e
00000150: 8b1b 893e 211c 1d3f 9f9a 8d3e 737d 0a3f
00000160: 2e44 893e 06fc 033f a080 243e e3dd d33e
00000170: f061 a83d f4eb f73e 3207 3f3c 512e 3d3d
00000180: 7128 ec3b ce13 de3d b420 8d3e 0359 c93e
00000190: 2e8d dc3e 2b5c d53e f823 e83e b9f6 f83e
000001a0: f7ee ce3e 1b5c fd3e 4ba3 cf3e bfe0 f13e
000001b0: badb 703e 0c2e 073e 96f6 9f3d 2e04 1a3d
000001c0: f24d dcba ba5b 9c3c 87ab 043e aaf1 783e
000001d0: 5bf8 823d 6320 633e b3a4 a83e 2ece 9c3e
000001e0: 14a5 ab3d 09d9 9b3e f55d 843e 4bee b13e
000001f0: 4134 13bd 0fc0 663d e143 e8bb 5969 153d
00000200: 299a ef39 da66 ecba 8aef 6d3c 5d52 153e
00000210: 36dc 793e 4b06 c73e 5ce3 5c3e 98d9 d93e
00000220: bf07 d23e 4de4 933e 2a26 053e ba33 473e
00000230: 1279 883c 191b 2dbb 266c 3dbb d952 553a
00000240: 6b04 1dbb 2685 823d e91d 563c 0664 bc3e
00000250: bc6e 683e 42b5 5c3f 4706 bd3e db46 223f
00000260: 352c 8b3e d4b2 173f 0439 703e 2741 393e
00000270: 09d7 df3c cd72 7e3d c1cc dd3c 9ad8 6f3c
00000280: 1e8c 193a 199a f23b 0db7 9fbc 6071 653e
00000290: ef18 913e 51b6 233f f8ca 823e fa9e 1e3f
000002a0: ffdc 053f c1cf f33e f8f7 0a3e a497 b23e
000002b0: 6df8 263e fa70 153d 568d d3bb 6d1a 1e3d
000002c0: 0d8a 6bba 35ed 623d 1d9b 953e 8fa9 a93e
000002d0: 4910 e73e c18a d33e c47d 383f 87e3 3b3f
000002e0: 3bc1 243f 8f73 2a3f 02b1 353f c269 053f
000002f0: 44dd 133f 4e14 4c3e b896 773c 2e6f 513c
00000300: 20d8 46ba cd9a 64ba 92b2 d6ba 249d 5dbb
00000310: 716a c83c 37ac 173d 90b3 423d f7fb 2abc
00000320: 6dfd 7abc 65ff 8d3d d35e 5b3d 977d 753b
00000330: 1e39 f7bb 8339 b63b 62e4 76bb 6697 6c3a
00000340: 4cf1 4a3a 2643 1f3b 7ffc b639 bd65 2a3d
00000350: ff92 32bb 063d c93d ba9a 753d 6902 ecbb
00000360: 7aae 1e3c e887 e13c 45e8 303c 37a2 8a3c
00000370: bbea caba c5d2 b1ba 4eec 7b3b ebe3 41bb
00000380: f3d4 3eb8 e1b9 b239 04dc c0b9 30ae 403a
00000390: 3b5a 1239 1e3d 0d3b fc4f 0c3a cce5 4f3b
000003a0: 18a5 feb9 6f75 8c3b 74b2 c13a 9fde e03a
000003b0: 6ae3 08bb 19e5 34ba bba2 4cba 69f5 68bb
000003c0: 5861 5039 dca6 923b 9f63 a738 0744 f63a
000003d0: 94d2 cf3a e503 c13b d880 caba 5b68 6f3b
000003e0: 9ba2 9d3a 6511 673b e8a7 c639 e689 cd3b
000003f0: eff6 7fbb b098 9c3b e41b 66ba 1091 bd38
0.0024608008 0.013684256 -0.009282626 0.010241411 0.00794417 -0.01182685 -0.02391139 0.03130443
0.0016355749 0.017541435 -0.020632608 0.032603305 0.025435144 0.01980289 -0.00012127326 -0.0012460919
0.037218038 0.17938364 0.19404806 0.37449357 0.33052415 0.43057764 0.5001201 0.5386909
0.52558005 0.6306287 0.5506654 0.35155413 0.36783305 0.33127582 0.39861542 0.1826625
0.080529094 0.31591827 0.12934735 0.3648832 0.29733428 0.5074572 0.17970851 0.6196591
0.24176763 0.5171783 0.27577502 0.52512145 0.24164303 0.43972117 0.11171236 0.073946916
0.33262703 0.85013616 0.69283336 0.8475058 0.6580152 0.83753663 0.69428843 0.82789874
0.6452608 0.7651953 0.60403603 0.71379817 0.60052127 0.66153526 0.19753358 -0.1166104
0.011582291 0.36305508 0.27980316 0.44977656 0.38242424 0.5469015 0.34294632 0.59368026
0.41225109 0.5728334 0.46304655 0.29270846 0.16309172 0.3047032 0.0030222319 0.0009249308
0.00069984223 0.3351846 0.4513704 0.497833 0.26778826 0.61371046 0.2765703 0.5409767
0.2680983 0.5155643 0.16064692 0.41380224 0.08221805 0.48422205 0.01165943 0.04618675
0.0072069694 0.10843621 0.27564013 0.39325723 0.43076462 0.4167188 0.45339942 0.48625734
0.4041669 0.49484333 0.4055427 0.4724178 0.23521319 0.13201159 0.078107044 0.037601642
-0.0016807897 0.019086707 0.12956057 0.24310938 0.06395026 0.22180323 0.32938156 0.30626053
0.083810955 0.30439022 0.25852934 0.34752116 -0.035938505 0.056335505 -0.00708817 0.03647742
0.0004570049 -0.0018036023 0.014522443 0.145822 0.2440041 0.3887199 0.21571106 0.42548823
0.41021535 0.28885117 0.1300284 0.19453326 0.016659293 -0.0026413857 -0.0028903573 0.00081376504
-0.0023958932 0.06373052 0.013068655 0.36795062 0.22698492 0.8621408 0.36918852 0.63389367
0.27182165 0.59257245 0.2345925 0.1809126 0.027324216 0.0621212 0.027075173 0.014639044
0.0005857366 0.007403624 -0.019496465 0.2240653 0.28339335 0.6395007 0.25545478 0.6196133
0.5229034 0.4761944 0.13571155 0.34881318 0.16305704 0.036484696 -0.0064560575 0.03859942
-0.000898511 0.055402 0.29219905 0.33137175 0.45129612 0.41316798 0.72066903 0.73394054
0.64357346 0.6658258 0.7097322 0.521145 0.577595 0.1992962 0.015111618 0.012782855
-0.0007585306 -0.0008720577 -0.0016380122 -0.0033815587 0.024464818 0.03702947 0.047534525 -0.01043605
-0.0153192105 0.06933478 0.05355723 0.003745889 -0.0075446507 0.005561055 -0.0037672748 0.00090252457
0.00077416445 0.0024301498 0.0003490187 0.04160093 -0.002724826 0.098260924 0.059962012 -0.0072024358
0.009685153 0.027530625 0.010797565 0.016923053 -0.0015481332 -0.0013566843 0.003844041 -0.0029585313
-4.5497854e-05 0.00034089296 -0.00036785018 0.0007350175 0.00013957258 0.0021551321 0.0005352495 0.0031722663
-0.0004856966 0.00428646 0.0014777915 0.001715619 -0.0020887502 -0.0006900593 -0.0007806231 -0.0035546666
0.00019872689 0.0044754576 7.9817364e-05 0.0018788584 0.0015855604 0.005890357 -0.0015449775 0.0036530707
0.001202661 0.003525817 0.00037890603 0.0062725423 -0.0039057096 0.004778944 -0.000877796 9.039242e-05

module.ln2.bias f4 [16, 16, 16]
00000000: 18c3 e3ba 3dd6 8ebc 3afc 683b 0217 4bbc
00000010: 5831 bdbb 1c93 e4bc a401 cb3c b0f5 fa3a
00000020: 4b8a 82bb e3e8 543c 570c edb9 b9b1 1fbd
00000030: 7453 18bd a79f b9bc 0424 1cba e271 93bc
00000040: 9c75 09bd 193e 46bc f57e 00bd 1ef3 9ebb
00000050: f7f9 f33b 9a1b 93bc 9af9 24bd e93c e93d
00000060: 7cde 8b3c 4d79 fbbb ef2a 0f3a 2b65 8c3d
00000070: 9591 89bd 1282 12bd 914f 7a39 383e 6c3c
00000080: 64bd 0dbd e8d2 9cbd ad46 d3bc 7e50 9dbd
00000090: 695a a23c c86f 113c dd4b cc3c 2a85 61bd
000000a0: 1ea6 523c 48ed 993c 558f 843d 801e b73d
000000b0: f952 1a3d 47da b93c eac6 243c 1507 e63c
000000c0: 4904 19be 5c0d 3bbd 4cfc ddbd e89e 06bd
000000d0: d043 f3bc 7705 953d 561f 03be 6e4e 94bc
000000e0: 19a7 dabd e527 c53b 3049 a5bd 2566 93bb
000000f0: 7918 88bd 09c7 2f3d df30 ffbd 3a45 1cbc
00000100: bcf5 d3bb b714 e1ba 5357 afbc 2d87 5dbd
00000110: f748 263c 8a20 ef3c d842 503a e685 6f3c
00000120: 580b 9c3c d4b5 c13c 7548 c33c 54bc 84bd
00000130: 5b86 3cbd 746d 0cbd d2d7 553b e71f edbb
00000140: 4e45 5f3c 7d7f dbbc 84cb 5c3c 9a20 483c
00000150: d309 573d 4468 b23c 945a 3d3d cd38 2a3d
00000160: da6a 05bd 8007 1e3d 8ce7 623c 6812 abbc
00000170: 148d bb3c 60e6 c5bc e9c0 743c ac97 1dbd
00000180: 0b75 a9bb b5b9 52bc 6455 dd3c 4d78 473c
00000190: 26b3 bcbb b6c7 133d 63b5 8abb befe 643d
000001a0: de33 e7bb 5050 253d d39e 22bc 7126 373d
000001b0: ece5 e2bc d94e 28bd ca63 f63c 3e3c 653c
000001c0: c9d2 a1bb 0783 6dbd 468a cbbb c00a cfbd
000001d0: b513 d63b 324d 1bbe 46e8 abba da40 f7bd
000001e0: d022 d6bd 29d1 12be c91d 833d c18b edbd
000001f0: 75ed a4bc a343 ffbd ef72 4bbd 6d2d 99bd
00000200: 0edf a4b9 17ba 8abc 609b b3bc b063 c5bc
00000210: ea95 57bd f877 a2bd 1b64 dfbc 8dd0 aabd
00000220: 0785 36bd 8bf1 0d3c d30b 96bc 8ff5 5cbd
00000230: 5456 36bb b5ce b639 5074 963b 161b f2b9
00000240: 5a14 493b 07eb 08bd 5a50 4b3c 90d9 7dbc
00000250: 7630 0d3d b3d6 013d b217 bd3d ad92 1cbd
00000260: d21a 2d3c c6ae 2c3d b818 02bc 0687 22bc
00000270: e4f0 a0bd d4c0 cbbd b8da 4ebd f1fc 08bd
00000280: 2ad2 b3ba 0e24 3ebc 7a66 d13c c088 c6bc
00000290: 46e2 d83c ab70 f13b e6e1 e63c da63 1b3c
000002a0: 48e5 2f3c 023e 04bb 1af0 2b3d 6a42 9fbb
000002b0: 4891 d7ba 291a 86bd 986a 6d3c be43 65bd
000002c0: 8225 f1b9 9563 78bd 9514 453d dff4 92bd
000002d0: b58b 57bd 9e04 463c 8563 413c 6488 cc3c
000002e0: ea60 28bd 4aaf 483c 9598 933d 11be debd
000002f0: 9235 d53c 7ffa 15be e3b0 02bd 194b 0fbd
00000300: 1604 a93a f4c9 b5ba bf76 64ba 4507 18bd
00000310: 6891 c73c 340a 1eba da90 253b 1b2b c83c
00000320: e81f 8b3b a5c4 2ebc 460e 893c 8c9e a73c
00000330: cf22 cdbb 29e5 04bc 3274 cc3b b7e3 66ba
00000340: df89 43bb f0e5 72bc 4de5 a4ba 604d a0bd
00000350: 3624 b83c 75dc e7bd 466c 3d3c caef 9dbc
00000360: cf58 603c 9231 4dbd a0a9 83bc b2a5 263c
00000370: c98e 143c 9ca3 13bc 3514 d2bb 5896 9e3a
00000380: 3588 a9b8 0a10 86bb b538 3f3a 0b4e a6bb
00000390: 1d62 2738 1afb 87bb 08d5 aeba f179 21bc
000003a0: 5f4e fe3a 7a99 e5bb 5758 0db9 9193 41bb
000003b0: 8ca0 373b f603 adba 7740 cb3a 583b c13b
000003c0: 23a4 2cba 56f3 94bc f5be acb9 db09 4ebc
000003d0: e711 43bb a895 8ebc bf5b 253b 9717 42bc
000003e0: dc1f 0fbb d327 27bc 3a1d 0cbb 9257 7cbc
000003f0: 4311 9f3b f707 78bc 974b dd3a 2203 1dbb
-0.0017376868 -0.017436141 0.003555073 -0.012395622 -0.0057737045 -0.027902178 0.024781056 0.0019146707
-0.003983771 0.012994978 -0.00045213356 -0.03898785 -0.037188962 -0.022659136 -0.00059562945 -0.01799864
-0.033559427 -0.012099766 -0.031371076 -0.004850759 0.0074455696 -0.017957497 -0.0402771 0.11388571
0.017073862 -0.0076743723 0.00054614147 0.06855234 -0.06717221 -0.035768576 0.00023871499 0.014419131
-0.034604445 -0.07657415 -0.025790537 -0.07681368 0.019818502 0.008876748 0.024938518 -0.055058636
0.012856988 0.018789902 0.06472651 0.08941364 0.037676785 0.02268709 0.01005719 0.028079549
-0.14943041 -0.045667037 -0.108391374 -0.03286639 -0.029695421 0.07276433 -0.12804922 -0.018103804
-0.106764026 0.0060167187 -0.080706 -0.0044982606 -0.06645293 0.042914424 -0.12460493 -0.009537989
-0.006468503 -0.0017172311 -0.021403944 -0.05408399 0.010149232 0.02919032 0.0007944531 0.014619326
0.019048378 0.023646273 0.023838261 -0.06481233 -0.04602657 -0.03428407 0.003262986 -0.007236469
0.013627363 -0.02679419 0.013476256 0.012214804 0.052499603 0.021778233 0.04622896 0.041558076
-0.032572605 0.03858137 0.01384915 -0.0208828 0.02289442 -0.024157703 0.0149385715 -0.038474724
-0.0051714233 -0.012861659 0.027018256 0.012174678 -0.005758661 0.03607913 -0.0042330488 0.055907004
-0.0070557436 0.040359795 -0.009925562 0.044714395 -0.027697526 -0.04109082 0.03007688 0.013991414
-0.0049384576 -0.057986286 -0.006211552 -0.10109472 0.006533111 -0.15166166 -0.0013115488 -0.12072916
-0.10455859 -0.14337601 0.064021654 -0.115989216 -0.02013276 -0.124640726 -0.049670156 -0.074793674
-0.00031446706 -0.016934438 -0.021924675 -0.024095386 -0.052633204 -0.079330385 -0.027269414 -0.08340559
-0.04456046 0.008663545 -0.018316185 -0.05394512 -0.0027822452 0.00034867754 0.0045915022 -0.00046178018
0.0030682296 -0.033427265 0.012409294 -0.0154937655 0.034470044 0.031698894 0.09233035 -0.03822582
0.0105654765 0.042158864 -0.007940464 -0.009919887 -0.07858446 -0.099488884 -0.050501555 -0.03344435
-0.001371925 -0.011605276 0.02556156 -0.02423513 0.026475083 0.0073681674 0.028183889 0.009484256
0.010735817 -0.002017856 0.041977026 -0.004860212 -0.0016446495 -0.065479584 0.014490746 -0.055972807
-0.00045995048 -0.060641844 0.04811533 -0.07175612 -0.05262347 0.012086062 0.011803512 0.02496738
-0.04110805 0.012248823 0.07206837 -0.10876096 0.02602652 -0.14646338 -0.031906974 -0.034983728
0.0012894894 -0.0013869391 -0.00087152043 -0.037116308 0.024361327 -0.0006028742 0.002526334 0.024434617
0.004245747 -0.010667001 0.016730439 0.020461343 -0.006260253 -0.008111277 0.0062394375 -0.0008807736
-0.0029836816 -0.014825329 -0.0012580544 -0.07827258 0.022478204 -0.11321346 0.011561459 -0.01927938
0.013693049 -0.050096102 -0.016072094 0.010171341 0.009067246 -0.0090111755 -0.0064111003 0.0012099249
-8.0839185e-05 -0.0040912675 0.0007294522 -0.0050752214 3.9907278e-05 -0.0041498067 -0.0013338635 -0.009855733
0.0019402019 -0.007006821 -0.00013479717 -0.002953742 0.0028019277 -0.0013200033 0.0015506883 0.005896967
-0.00065857376 -0.018182438 -0.0003294867 -0.012575592 -0.002976531 -0.017405346 0.0025231687 -0.011846445
-0.0021839058 -0.010202366 -0.0021379725 -0.015401738 0.0048543527 -0.015138618 0.001688349 -0.0023958166

module.conv3.weight f4 [32, 16, 3, 3]
00000000: b262 af3d 7551 253e 43c0 11bd c606 ebbe
00000010: 525f 0c3d 28a5 26be 462e b83e dc3b 6abd
00000020: 5ba7 693e 3b48 173e fc27 c33d 6c35 9b3d
00000030: cef5 bbbe 99e8 21be 45e5 81bc bbba 483e
00000040: 5cfe 5bbe baf0 93be 633d 17bd 5929 db3d
00000050: 32be 80be f5f3 21be 088a 41be 9b29 ea3d
00000060: 9f4e f9bd d318 1b3e 2949 d9bd 9488 1b3e
00000070: 6db5 62be e406 df3c 8553 2b3e 989a 97bd
00000080: 450e c5bc e7f1 f33c d3b0 863e 1c4b 743e
00000090: 889f a83e e08a 1e3d 33e2 b6bd 4cdd c13d
000000a0: 0fc1 a03c d1a6 b8be bca4 b4bc d625 273e
000000b0: b32c 08be 38bf 1d3e f163 78be 7b81 5dbe
000000c0: dc0d e5bd 8faa 63be d373 f0bd 806f b43d
000000d0: 4085 45be 3c6e 0fbe d134 1c3e cda8 283c
000000e0: c0c2 e33c a122 ee3d ec9d 08bd f3ad abbb
000000f0: 845b f93c 8323 563b 6ea8 e33d 765a f4bc
00000100: c51e a7bb 9376 833d 6cc3 54bd 777e 763b
00000110: 8f7a a4bd 4276 35bd ef85 f23c ae63 97bd
00000120: b1c3 433e 54b7 303c e625 34be 17de 7d3c
00000130: 7736 82be ff28 cfbd 8256 0bbc fab5 493e
00000140: 758c 863c 54fb e5bc f92e 523d 8234 b8bc
00000150: a0b7 053e 50e6 5ebe 0a98 babe 35bd 133d
00000160: 12b9 983e e5c2 30bd 0f8a 23be 7dd5 e6bc
00000170: b83b 563e ee3d 83be 0dbb be3b c5ad 5cbd
00000180: f8bb af3e 3e53 4abe 53e6 57be 5a9c bdbd
00000190: f9e7 693d c139 dcbd 3d0a 6d3e df3b cabc
000001a0: beb2 83be a5f0 1bbd e5c7 033d 3df9 853e
000001b0: 4e42 6abe 2248 27be 0c56 e0bd e460 f83d
000001c0: d69d 71bc baf3 15bd 8434 2c3e 4c62 d33c
000001d0: 07d6 183d 037d 0dbb f0d1 c93d e721 74bc
000001e0: 431a 14be 70c5 e3bd 8608 d23d 070e eb3d
000001f0: acd4 0b3d ff08 3bbe 6e1d e53d f050 d13d
00000200: 2510 563d f5df 36bc ef65 423d dbbe c0bd
00000210: 012e 7fbe 916f 77be 43e9 17be 69b9 413e
00000220: 23c5 7abd 0092 45be 4341 80be 13de d03d
00000230: 4fa1 b23c a71e 4ebd 76e2 d13e aca7 4f3e
00000240: 66e8 3dbe 0d6a 103d 2e60 c23c a4f9 7c3d
00000250: f741 68be 7f3a e9bc 86d3 873d 1001 a23b
00000260: e6c4 82bd 0f56 9cbe 1519 e2bd adec a43a
00000270: 78d6 193e eb99 0fbd 32d1 d73d 10cc de3d
00000280: a107 04be c5c3 26be 264b bfbd f990 383e
00000290: a478 4fbd 6559 e8bd 2f62 acbd e501 293d
000002a0: af39 16bd aeaf b03d 4e02 b4be 074c f2bd
000002b0: b630 b4bb 5bdd 903d cdea 9fbd 352e 70be
000002c0: c542 07be e961 51bd 8245 b9bd bbc9 103e
000002d0: dc95 153e d4b9 49bc 5a1e 3d3e a54d 653b
000002e0: 80d9 f9bd 3933 103e a1b2 f23c 54de 093e
000002f0: 5dff 323e 871e a7bc a7a4 9c3e 3fc6 e93d
00000300: 3afc 9cbd fcb2 c6bd 3968 07bd 452c 943b
00000310: 03c4 5fbb a5d0 153d ec84 493e 1711 193e
00000320: 6b6f 33bd 5c6f af3d a434 1e3e 496a 8f3d
00000330: 378f a63c 7e34 f33d a83a ea3d 638c ad3b
00000340: a389 a73d bb95 573d a817 e03c b78a 73bb
00000350: 192d 733c 0ade c3bd a490 063c a70a 8fbd
00000360: 8e96 23bd f15a 30be 272d 123e 9bb0 8abe
00000370: 59d3 a33d 0a33 7c3e 53b0 293e 21fb bc3e
00000380: 5858 813d 4578 8b3c e327 613d b473 9d3d
00000390: 5248 a5be e656 b8bd e1ff 1a3d 79ee 26be
000003a0: 96a3 4f3e 6813 b63d 0127 f83d e2d7 30be
000003b0: 0e78 20be 1d6a 0b3e b5cc 813d ca25 4c3c
000003c0: bd85 063e 66b4 803d 57ac 05be e7cb 013e
000003d0: bd6f 113d 7081 c0bc 7025 36bd 1171 333d
000003e0: 7cbc 9d3d 5894 aa3c 012b 533a cbfc 48bd
000003f0: 8888 863c 680d 8f3d 0a4d 033e b21b 0dbd
0.085637465 0.16144355 -0.035583746 -0.45903605 0.034270592 -0.1627394 0.35972804 -0.057185993
0.22817747 0.14773647 0.09529111 0.07578549 -0.36710972 -0.15811385 -0.015856395 0.19602482
-0.21483749 -0.28894597 -0.036923777 0.10701246 -0.25145108 -0.15815718 -0.18900311 0.11433717
-0.12173199 0.15146188 -0.10609657 0.15188819 -0.22139521 0.027224965 0.16731079 -0.07402533
-0.024054656 0.029778434 0.2630678 0.23856777 0.32934213 0.03870666 -0.08929863 0.09466037
0.019623308 -0.3606477 -0.022051208 0.16323027 -0.13298301 0.15404975 -0.24256875 -0.21631424
-0.11184284 -0.22233032 -0.11740842 0.088103294 -0.19289112 -0.14006895 0.15254523 0.0102941515
0.027802825 0.11627699 -0.03335373 -0.005239242 0.030439146 0.0032674975 0.1111611 -0.029828291
-0.0051001036 0.064191006 -0.05194418 0.0037612 -0.08031189 -0.044302233 0.02960488 -0.07392059
0.19117619 0.010785896 -0.17592582 0.015494845 -0.25432178 -0.10115241 -0.008504512 0.19698325
0.016424397 -0.028073944 0.051314328 -0.022485975 0.13058329 -0.21767545 -0.36444122 0.036069114
0.29828697 -0.043154616 -0.15970634 -0.028177971 0.20921218 -0.25633186 0.005820638 -0.053876657
0.34323096 -0.19758317 -0.21083955 -0.09258337 0.057105992 -0.10753203 0.23148437 -0.024686752
-0.25722307 -0.038071293 0.032173056 0.26166716 -0.22876856 -0.1633611 -0.10953912 0.121278554
-0.014747104 -0.03660939 0.16816908 0.025803708 0.037313487 -0.0021589405 0.098544955 -0.014900661
-0.14463143 -0.111216426 0.10255532 0.11477285 0.034138367 -0.1826515 0.11187254 0.10220516
0.05226149 -0.011161794 0.047460493 -0.09411403 -0.24919893 -0.24163653 -0.14835076 0.18918385
-0.06122316 -0.19293976 -0.2504979 0.10198607 0.021805434 -0.0503222 0.40993088 0.20278805
-0.18545684 0.035257388 0.023727503 0.061761513 -0.22681414 -0.028470276 0.06632142 0.0049439743
-0.06385212 -0.30534407 -0.1103994 0.0012582742 0.1502322 -0.035058897 0.10537948 0.108787656
-0.12893535 -0.16285618 -0.09340505 0.18024053 -0.05065216 -0.11345176 -0.084171645 0.041261572
-0.036676105 0.08627258 -0.35158008 -0.11830907 -0.005498971 0.0707347 -0.078084566 -0.23455127
-0.13209064 -0.051118765 -0.09046461 0.14139454 0.14607948 -0.012312371 0.1846861 0.0034988907
-0.12199688 0.1408204 0.029626193 0.13463718 0.17480226 -0.020400299 0.3059437 0.114147656
-0.07665296 -0.09702107 -0.03305838 0.004521879 -0.0034143932 0.036575932 0.19679612 0.14947926
-0.04380743 0.08566162 0.15449768 0.07002694 0.020331962 0.118752465 0.11436969 0.0052962764
0.08180549 0.05263303 0.02735503 -0.0037161538 0.014842295 -0.09563835 0.008213196 -0.06984454
-0.039938502 -0.17222191 0.14275037 -0.27087864 0.07999296 0.24628845 0.16571169 0.36910346
0.06315678 0.017025122 0.05496968 0.07688084 -0.3228174 -0.090009496 0.03784168 -0.16301908
0.20277247 0.0889042 0.121168144 -0.17269853 -0.15670797 0.13614698 0.06337873 0.0124601815
0.13136955 0.06284408 -0.13054024 0.12675439 0.035506953 -0.02349922 -0.044469297 0.043809
0.07701966 0.020822689 0.00080554193 -0.049069207 0.016422525 0.06984979 0.12822357 -0.03445024

module.conv3.bias f4 [32]
00000000: 21bc e9bd b227 5abe 3cde fc39 005b 693e
00000010: 3acf 683d 93cd f6bd b715 613d 6c8c 5abd
00000020: 99eb c13d ca41 9a3d cd2a e1bd 6c8d 14bc
00000030: 4254 763e 5ec0 4ebe 5803 8e3d 3071 b9bc
00000040: 52a4 82bd 786a 353d 8aff b53d c6dc a03d
00000050: bd6e 4c3e 4836 89be ba7d cdbd f57d 8a3d
00000060: df08 343e ecf0 863d 1c22 bbbb eb99 293e
00000070: 2dce 0cbd e30b 98be 930f 9a3c 2ce8 7bbe
-0.11412836 -0.21304205 0.00048230763 0.2278862 0.05683825 -0.12050929 0.05495235 -0.053356573
0.09468765 0.075320795 -0.10994492 -0.009066921 0.2405558 -0.2019057 0.069342315 -0.02263698
-0.06378998 0.04429099 0.08886631 0.07854609 0.19964118 -0.26799226 -0.10033746 0.06762306
0.17581509 0.06588921 -0.0057108533 0.16562621 -0.034376312 -0.2969657 0.018806254 -0.24600285
